{"class_name":"Model","config":{"name":"model_1","layers":[{"name":"input_1","class_name":"InputLayer","config":{"batch_input_shape":["None",100,18],"sparse":false,"name":"input_1"},"inbound_nodes":[]},{"name":"mask","class_name":"Masking","config":{"name":"mask","mask_value":-999},"inbound_nodes":[[["input_1",0,0,{}]]]},{"name":"td_dense0","class_name":"TimeDistributed","config":{"name":"td_dense0","layer":{"class_name":"Dense","config":{"name":"dense_1","units":24,"activation":"relu","use_bias":true,"kernel_tensor":[… "bias_tensor":[… "feature_scaling":[{"name":"B_IFT_OSMuonDev_TagPartsFeature_Tr_T_PROBNNe","offset":0.028123268857598305,"scale":0.13705119490623474},{"name":"B_IFT_OSMuonDev_TagPartsFeature_Tr_T_PROBNNghost","offset":0.12149450182914734,"scale":0.23996014893054962},{"name":"B_IFT_OSMuonDev_TagPartsFeature_Tr_T_PROBNNk","offset":0.14964638650417328,"scale":0.26349830627441406},{"name":"B_IFT_OSMuonDev_TagPartsFeature_Tr_T_PROBNNmu","offset":-0.7986099720001221,"scale":0.41691336035728455},{"name":"B_IFT_OSMuonDev_TagPartsFeature_Tr_T_PROBNNp","offset":0.1111789271235466,"scale":0.22657831013202667},{"name":"B_IFT_OSMuonDev_TagPartsFeature_Tr_T_PROBNNpi","offset":0.6722174882888794,"scale":0.3515162467956543},{"name":"B_IFT_OSMuonDev_TagPartsFeature_Tr_T_P","offset":11855.3896484375,"scale":15391.771484375},{"name":"B_IFT_OSMuonDev_TagPartsFeature_Tr_T_PT","offset":673.6062622070312,"scale":661.4232177734375},{"name":"B_IFT_OSMuonDev_TagPartsFeature_Tr_T_Charge","offset":0.008345737121999264,"scale":0.9999651312828064},{"name":"B_IFT_OSMuonDev_TagPartsFeature_Tr_T_BPVIP","offset":1.371565580368042,"scale":6.349822521209717},{"name":"B_IFT_OSMuonDev_TagPartsFeature_Tr_T_BPVIPCHI2","offset":830.6148681640625,"scale":11913.82421875},{"name":"B_IFT_OSMuonDev_TagPartsFeature_Tr_T_SumBDT_ult","offset":-53.26155090332031,"scale":26.827566146850586},{"name":"B_IFT_OSMuonDev_TagPartsFeature_Tr_T_VeloCharge","offset":0.9711280465126038,"scale":0.13890254497528076},{"name":"B_IFT_OSMuonDev_TagPartsFeature_Tr_T_IP_trMother","offset":2.815931797027588,"scale":6.69918155670166},{"name":"B_IFT_OSMuonDev_TagPartsFeature_diff_z","offset":9.381742477416992,"scale":76.19425964355469},{"name":"B_IFT_OSMuonDev_TagPartsFeature_P_proj","offset":11958703.0,"scale":19928662.0},{"name":"B_IFT_OSMuonDev_TagPartsFeature_cos_diff_phi","offset":-0.0452224500477314,"scale":0.7113487124443054},{"name":"B_IFT_OSMuonDev_TagPartsFeature_diff_eta","offset":-0.020097680389881134,"scale":1.0171055793762207}]}}},"inbound_nodes":[[["mask",0,0,{}]]]},{"name":"td_dense1","class_name":"TimeDistributed","config":{"name":"td_dense1","layer":{"class_name":"Dense","config":{"name":"dense_2","units":24,"activation":"relu","use_bias":true,"kernel_tensor":[… "bias_tensor":[… "inbound_nodes":[[["td_dense0",0,0,{}]]]},{"name":"td_dense2","class_name":"TimeDistributed","config":{"name":"td_dense2","layer":{"class_name":"Dense","config":{"name":"dense_3","units":24,"activation":"relu","use_bias":true,"kernel_tensor":[… "bias_tensor":[… "inbound_nodes":[[["td_dense1",0,0,{}]]]},{"name":"noseq_gru","class_name":"GRU","config":{"name":"noseq_gru","return_sequences":false,"return_state":false,"go_backwards":false,"stateful":false,"unroll":false,"units":48,"activation":"relu","recurrent_activation":"hard_sigmoid","use_bias":true,"reset_after":false,"Wz":[… "Wr":[… "Wt":[… "Uz":[… "Ur":[… "Ut":[… "bz":[… "br":[… "bt":[… "inbound_nodes":[[["td_dense2",0,0,{}]]]},{"name":"dropout_1","class_name":"Dropout","config":{"name":"dropout_1","rate":0.5,"noise_shape":"None","seed":"None"},"inbound_nodes":[[["noseq_gru",0,0,{}]]]},{"name":"outputTag","class_name":"Dense","config":{"name":"outputTag","units":1,"activation":"sigmoid","use_bias":true,"kernel_tensor":[… "bias_tensor":[-0.04903487116098404]},"inbound_nodes":[[["dropout_1",0,0,{}]]]}],"input_layers":[["input_1",0,0]],"output_layers":[["outputTag",0,0]]},"metadata":{"generator_invocation":"python../../../rnngenerator/disassemble_keras.py-modelfileCustom-B2JpsiKstar-2015-2018-Full-1-BuJpsiK-2016-32768-tag.h5-nameIFT_Bd_14052021-scalefilescaling.txt","creation_time":"2021-05-1410:02:43","weightfile_id":"R5X8GRH584E7NZ0WXHQNYDDASXUN88BT2TZ","generator_branch":"master","generator_version":"('f62e5af2c499c745dd9df017ec9140230af6baf9',)","simplenn_version":"9820d364d5789ff5cfdc18e14bb1fcd97a4a6d24"}}
