{"class_name": "Model", "config": {"name": "model_1", "layers": [{"name": "input_1", "class_name": "InputLayer", "config": {"batch_input_shape": ["None", 100, 18], "sparse": false, "name": "input_1"}, "inbound_nodes": []}, {"name": "mask", "class_name": "Masking", "config": {"name": "mask", "mask_value": -999}, "inbound_nodes": [[["input_1", 0, 0, {}]]]}, {"name": "td_dense0", "class_name": "TimeDistributed", "config": {"name": "td_dense0", "layer": {"class_name": "Dense", "config": {"name": "dense_1", "units": 24, "activation": "relu", "use_bias": true, "kernel_tensor": [… "bias_tensor": [… "feature_scaling": [{"name": "B_IFT_OSMuonDev_TagPartsFeature_Tr_T_PROBNNe", "offset": 0.030261768028140068, "scale": 0.1453121453523636}, {"name": "B_IFT_OSMuonDev_TagPartsFeature_Tr_T_PROBNNghost", "offset": 0.11383388191461563, "scale": 0.23897698521614075}, {"name": "B_IFT_OSMuonDev_TagPartsFeature_Tr_T_PROBNNk", "offset": 0.15035028755664825, "scale": 0.2782687544822693}, {"name": "B_IFT_OSMuonDev_TagPartsFeature_Tr_T_PROBNNmu", "offset": -0.9379542469978333, "scale": 0.26889532804489136}, {"name": "B_IFT_OSMuonDev_TagPartsFeature_Tr_T_PROBNNp", "offset": 0.12028364092111588, "scale": 0.24430136382579803}, {"name": "B_IFT_OSMuonDev_TagPartsFeature_Tr_T_PROBNNpi", "offset": 0.6829375624656677, "scale": 0.3651497960090637}, {"name": "B_IFT_OSMuonDev_TagPartsFeature_Tr_T_P", "offset": 12405.263671875, "scale": 15748.662109375}, {"name": "B_IFT_OSMuonDev_TagPartsFeature_Tr_T_PT", "offset": 692.3184204101562, "scale": 674.5028686523438}, {"name": "B_IFT_OSMuonDev_TagPartsFeature_Tr_T_Charge", "offset": 0.011514171026647091, "scale": 0.9999337196350098}, {"name": "B_IFT_OSMuonDev_TagPartsFeature_Tr_T_BPVIP", "offset": 1.2815855741500854, "scale": 5.881059646606445}, {"name": "B_IFT_OSMuonDev_TagPartsFeature_Tr_T_BPVIPCHI2", "offset": 739.5873413085938, "scale": 9590.01953125}, {"name": "B_IFT_OSMuonDev_TagPartsFeature_Tr_T_SumBDT_ult", "offset": -31.441909790039062, "scale": 16.6632022857666}, {"name": "B_IFT_OSMuonDev_TagPartsFeature_Tr_T_VeloCharge", "offset": 0.9704895615577698, "scale": 0.14000895619392395}, {"name": "B_IFT_OSMuonDev_TagPartsFeature_Tr_T_IP_trMother", "offset": 2.594221353530884, "scale": 6.110372543334961}, {"name": "B_IFT_OSMuonDev_TagPartsFeature_diff_z", "offset": 8.95514965057373, "scale": 74.30827331542969}, {"name": "B_IFT_OSMuonDev_TagPartsFeature_P_proj", "offset": 12478874.0, "scale": 21695880.0}, {"name": "B_IFT_OSMuonDev_TagPartsFeature_cos_diff_phi", "offset": -0.04796719178557396, "scale": 0.7115429639816284}, {"name": "B_IFT_OSMuonDev_TagPartsFeature_diff_eta", "offset": -0.07696045190095901, "scale": 0.9891189932823181}]}}}, "inbound_nodes": [[["mask", 0, 0, {}]]]}, {"name": "td_dense1", "class_name": "TimeDistributed", "config": {"name": "td_dense1", "layer": {"class_name": "Dense", "config": {"name": "dense_2", "units": 24, "activation": "relu", "use_bias": true, "kernel_tensor": [… "bias_tensor": [… "inbound_nodes": [[["td_dense0", 0, 0, {}]]]}, {"name": "td_dense2", "class_name": "TimeDistributed", "config": {"name": "td_dense2", "layer": {"class_name": "Dense", "config": {"name": "dense_3", "units": 24, "activation": "relu", "use_bias": true, "kernel_tensor": [… "bias_tensor": [… "inbound_nodes": [[["td_dense1", 0, 0, {}]]]}, {"name": "noseq_gru", "class_name": "GRU", "config": {"name": "noseq_gru", "return_sequences": false, "return_state": false, "go_backwards": false, "stateful": false, "unroll": false, "units": 48, "activation": "relu", "recurrent_activation": "hard_sigmoid", "use_bias": true, "reset_after": false, "Wz": [… "Wr": [… "Wt": [… "Uz": [… "Ur": [… "Ut": [… "bz": [… "br": [… "bt": [… "inbound_nodes": [[["td_dense2", 0, 0, {}]]]}, {"name": "dropout_1", "class_name": "Dropout", "config": {"name": "dropout_1", "rate": 0.5, "noise_shape": "None", "seed": "None"}, "inbound_nodes": [[["noseq_gru", 0, 0, {}]]]}, {"name": "outputTag", "class_name": "Dense", "config": {"name": "outputTag", "units": 1, "activation": "sigmoid", "use_bias": true, "kernel_tensor": [… "bias_tensor": [0.00910233985632658]}, "inbound_nodes": [[["dropout_1", 0, 0, {}]]]}], "input_layers": [["input_1", 0, 0]], "output_layers": [["outputTag", 0, 0]]}, "metadata": {"generator_invocation": "python ../../../../rnngenerator/disassemble_keras.py -modelfile ../Custom-B2JpsiK-2016-1-1-Bd2JpsiKstar-2015-2016-32768tag.h5 -name IFT_Bd_11112020 -scalefile ../scaling.txt", "creation_time": "2020-11-12 12:19:07", "weightfile_id": "TSNHH3PRRCYNI27WPOED9X5W099I0YUA104", "generator_branch": "master", "generator_version": "('f62e5af2c499c745dd9df017ec9140230af6baf9',)", "simplenn_version": "9820d364d5789ff5cfdc18e14bb1fcd97a4a6d24"}}