{"class_name": "Model", "config": {"name": "model_1", "layers": [{"name": "input_1", "class_name": "InputLayer", "config": {"batch_input_shape": ["None", 100, 18], "sparse": false, "name": "input_1"}, "inbound_nodes": []}, {"name": "mask", "class_name": "Masking", "config": {"name": "mask", "mask_value": -999}, "inbound_nodes": [[["input_1", 0, 0, {}]]]}, {"name": "td_dense0", "class_name": "TimeDistributed", "config": {"name": "td_dense0", "layer": {"class_name": "Dense", "config": {"name": "dense_1", "units": 24, "activation": "relu", "use_bias": true, "kernel_tensor": [… "bias_tensor": [… "feature_scaling": [{"name": "B_IFT_OSMuonDev_TagPartsFeature_Tr_T_PROBNNe", "offset": 0.029921475797891617, "scale": 0.14492681622505188}, {"name": "B_IFT_OSMuonDev_TagPartsFeature_Tr_T_PROBNNghost", "offset": 0.10169490426778793, "scale": 0.22438623011112213}, {"name": "B_IFT_OSMuonDev_TagPartsFeature_Tr_T_PROBNNk", "offset": 0.15999560058116913, "scale": 0.28967157006263733}, {"name": "B_IFT_OSMuonDev_TagPartsFeature_Tr_T_PROBNNmu", "offset": -0.9457343220710754, "scale": 0.25843897461891174}, {"name": "B_IFT_OSMuonDev_TagPartsFeature_Tr_T_PROBNNp", "offset": 0.12455946952104568, "scale": 0.24889972805976868}, {"name": "B_IFT_OSMuonDev_TagPartsFeature_Tr_T_PROBNNpi", "offset": 0.6835159063339233, "scale": 0.3672078549861908}, {"name": "B_IFT_OSMuonDev_TagPartsFeature_Tr_T_P", "offset": 12971.0205078125, "scale": 16599.708984375}, {"name": "B_IFT_OSMuonDev_TagPartsFeature_Tr_T_PT", "offset": 729.2111206054688, "scale": 742.1095581054688}, {"name": "B_IFT_OSMuonDev_TagPartsFeature_Tr_T_Charge", "offset": 0.011322290636599064, "scale": 0.9999359250068665}, {"name": "B_IFT_OSMuonDev_TagPartsFeature_Tr_T_BPVIP", "offset": 1.2204408645629883, "scale": 5.782809734344482}, {"name": "B_IFT_OSMuonDev_TagPartsFeature_Tr_T_BPVIPCHI2", "offset": 695.073486328125, "scale": 8493.69921875}, {"name": "B_IFT_OSMuonDev_TagPartsFeature_Tr_T_SumBDT_ult", "offset": -31.896360397338867, "scale": 15.051877975463867}, {"name": "B_IFT_OSMuonDev_TagPartsFeature_Tr_T_VeloCharge", "offset": 0.9174966812133789, "scale": 0.1316533088684082}, {"name": "B_IFT_OSMuonDev_TagPartsFeature_Tr_T_IP_trMother", "offset": 3.1734230518341064, "scale": 6.076236248016357}, {"name": "B_IFT_OSMuonDev_TagPartsFeature_diff_z", "offset": 9.433614730834961, "scale": 71.3769302368164}, {"name": "B_IFT_OSMuonDev_TagPartsFeature_P_proj", "offset": 15876521.0, "scale": 26115662.0}, {"name": "B_IFT_OSMuonDev_TagPartsFeature_cos_diff_phi", "offset": -0.058551542460918427, "scale": 0.7122989296913147}, {"name": "B_IFT_OSMuonDev_TagPartsFeature_diff_eta", "offset": -0.18361525237560272, "scale": 0.9581849575042725}]}}}, "inbound_nodes": [[["mask", 0, 0, {}]]]}, {"name": "td_dense1", "class_name": "TimeDistributed", "config": {"name": "td_dense1", "layer": {"class_name": "Dense", "config": {"name": "dense_2", "units": 24, "activation": "relu", "use_bias": true, "kernel_tensor": [… "bias_tensor": [… "inbound_nodes": [[["td_dense0", 0, 0, {}]]]}, {"name": "td_dense2", "class_name": "TimeDistributed", "config": {"name": "td_dense2", "layer": {"class_name": "Dense", "config": {"name": "dense_3", "units": 24, "activation": "relu", "use_bias": true, "kernel_tensor": [… "bias_tensor": [… "inbound_nodes": [[["td_dense1", 0, 0, {}]]]}, {"name": "noseq_gru", "class_name": "GRU", "config": {"name": "noseq_gru", "return_sequences": false, "return_state": false, "go_backwards": false, "stateful": false, "unroll": false, "units": 48, "activation": "relu", "recurrent_activation": "hard_sigmoid", "use_bias": true, "reset_after": false, "Wz": [… "Wr": [… "Wt": [… "Uz": [… "Ur": [… "Ut": [… "bz": [… "br": [… "bt": [… "inbound_nodes": [[["td_dense2", 0, 0, {}]]]}, {"name": "dropout_1", "class_name": "Dropout", "config": {"name": "dropout_1", "rate": 0.5, "noise_shape": "None", "seed": "None"}, "inbound_nodes": [[["noseq_gru", 0, 0, {}]]]}, {"name": "outputTag", "class_name": "Dense", "config": {"name": "outputTag", "units": 1, "activation": "sigmoid", "use_bias": true, "kernel_tensor": [… "bias_tensor": [-0.03211801499128342]}, "inbound_nodes": [[["dropout_1", 0, 0, {}]]]}], "input_layers": [["input_1", 0, 0]], "output_layers": [["outputTag", 0, 0]]}, "metadata": {"generator_invocation": "python ../../../../rnngenerator/disassemble_keras.py -modelfile ../Custom-B2JpsiK-2016-1-1-Bs2Dspi-2016-2018-32768tag.h5 -name IFT_Bs_11112020 -scalefile ../scaling.txt", "creation_time": "2020-11-12 15:00:49", "weightfile_id": "V7SR1S2S8UFQ0JQ2RW8IJI5ADC1Y66MQPNJ", "generator_branch": "master", "generator_version": "('f62e5af2c499c745dd9df017ec9140230af6baf9',)", "simplenn_version": "9820d364d5789ff5cfdc18e14bb1fcd97a4a6d24"}}