{"class_name": "Model", "config": {"name": "model_1", "layers": [{"name": "input_1", "class_name": "InputLayer", "config": {"batch_input_shape": ["None", 100, 18], "sparse": false, "name": "input_1"}, "inbound_nodes": []}, {"name": "mask", "class_name": "Masking", "config": {"name": "mask", "mask_value": -999}, "inbound_nodes": [[["input_1", 0, 0, {}]]]}, {"name": "td_dense0", "class_name": "TimeDistributed", "config": {"name": "td_dense0", "layer": {"class_name": "Dense", "config": {"name": "dense_1", "units": 24, "activation": "relu", "use_bias": true, "kernel_tensor": [… "bias_tensor": [… "feature_scaling": [{"name": "B_IFT_OSMuonDev_TagPartsFeature_Tr_T_PROBNNe", "offset": 0.030422654002904892, "scale": 0.14616194367408752}, {"name": "B_IFT_OSMuonDev_TagPartsFeature_Tr_T_PROBNNghost", "offset": 0.11401314288377762, "scale": 0.23914359509944916}, {"name": "B_IFT_OSMuonDev_TagPartsFeature_Tr_T_PROBNNk", "offset": 0.15336082875728607, "scale": 0.28137722611427307}, {"name": "B_IFT_OSMuonDev_TagPartsFeature_Tr_T_PROBNNmu", "offset": -0.9374123215675354, "scale": 0.26967713236808777}, {"name": "B_IFT_OSMuonDev_TagPartsFeature_Tr_T_PROBNNp", "offset": 0.1217692643404007, "scale": 0.24534550309181213}, {"name": "B_IFT_OSMuonDev_TagPartsFeature_Tr_T_PROBNNpi", "offset": 0.6797865033149719, "scale": 0.3665015995502472}, {"name": "B_IFT_OSMuonDev_TagPartsFeature_Tr_T_P", "offset": 12336.2587890625, "scale": 15372.3310546875}, {"name": "B_IFT_OSMuonDev_TagPartsFeature_Tr_T_PT", "offset": 684.4905395507812, "scale": 656.24853515625}, {"name": "B_IFT_OSMuonDev_TagPartsFeature_Tr_T_Charge", "offset": 0.011527227237820625, "scale": 0.9999336004257202}, {"name": "B_IFT_OSMuonDev_TagPartsFeature_Tr_T_BPVIP", "offset": 1.2934150695800781, "scale": 5.897713661193848}, {"name": "B_IFT_OSMuonDev_TagPartsFeature_Tr_T_BPVIPCHI2", "offset": 753.9222412109375, "scale": 11017.62109375}, {"name": "B_IFT_OSMuonDev_TagPartsFeature_Tr_T_SumBDT_ult", "offset": -31.718950271606445, "scale": 17.383716583251953}, {"name": "B_IFT_OSMuonDev_TagPartsFeature_Tr_T_VeloCharge", "offset": 0.9702540636062622, "scale": 0.14005929231643677}, {"name": "B_IFT_OSMuonDev_TagPartsFeature_Tr_T_IP_trMother", "offset": 2.4735429286956787, "scale": 6.123851299285889}, {"name": "B_IFT_OSMuonDev_TagPartsFeature_diff_z", "offset": 9.262086868286133, "scale": 74.80217742919922}, {"name": "B_IFT_OSMuonDev_TagPartsFeature_P_proj", "offset": 10589410.0, "scale": 17551046.0}, {"name": "B_IFT_OSMuonDev_TagPartsFeature_cos_diff_phi", "offset": -0.03754472732543945, "scale": 0.7110063433647156}, {"name": "B_IFT_OSMuonDev_TagPartsFeature_diff_eta", "offset": 0.11017335951328278, "scale": 1.0557432174682617}]}}}, "inbound_nodes": [[["mask", 0, 0, {}]]]}, {"name": "td_dense1", "class_name": "TimeDistributed", "config": {"name": "td_dense1", "layer": {"class_name": "Dense", "config": {"name": "dense_2", "units": 24, "activation": "relu", "use_bias": true, "kernel_tensor": [… "bias_tensor": [… "inbound_nodes": [[["td_dense0", 0, 0, {}]]]}, {"name": "td_dense2", "class_name": "TimeDistributed", "config": {"name": "td_dense2", "layer": {"class_name": "Dense", "config": {"name": "dense_3", "units": 24, "activation": "relu", "use_bias": true, "kernel_tensor": [… "bias_tensor": [… "inbound_nodes": [[["td_dense1", 0, 0, {}]]]}, {"name": "noseq_gru", "class_name": "GRU", "config": {"name": "noseq_gru", "return_sequences": false, "return_state": false, "go_backwards": false, "stateful": false, "unroll": false, "units": 48, "activation": "relu", "recurrent_activation": "hard_sigmoid", "use_bias": true, "reset_after": false, "Wz": [… "Wr": [… "Wt": [… "Uz": [… "Ur": [… "Ut": [… "bz": [… "br": [… "bt": [… "inbound_nodes": [[["td_dense2", 0, 0, {}]]]}, {"name": "dropout_1", "class_name": "Dropout", "config": {"name": "dropout_1", "rate": 0.5, "noise_shape": "None", "seed": "None"}, "inbound_nodes": [[["noseq_gru", 0, 0, {}]]]}, {"name": "outputTag", "class_name": "Dense", "config": {"name": "outputTag", "units": 1, "activation": "sigmoid", "use_bias": true, "kernel_tensor": [… "bias_tensor": [0.01767216995358467]}, "inbound_nodes": [[["dropout_1", 0, 0, {}]]]}], "input_layers": [["input_1", 0, 0]], "output_layers": [["outputTag", 0, 0]]}, "metadata": {"generator_invocation": "python ../../../../rnngenerator/disassemble_keras.py -modelfile ../Custom-B2JpsiK-2016-1-1-B2JpsiK-2015-2017-32768-2ndtry-tag.h5 -name IFT_Bu_11112020 -scalefile ../scaling.txt", "creation_time": "2020-11-16 08:52:32", "weightfile_id": "A2LMOMEKY4ATS4F43I99P2YPCC2ND3ER1L4", "generator_branch": "master", "generator_version": "('f62e5af2c499c745dd9df017ec9140230af6baf9',)", "simplenn_version": "9820d364d5789ff5cfdc18e14bb1fcd97a4a6d24"}}